pytorch/ser/logstic.pth (torch_old, 31896 bytes, 2 tensors)

logstic.weight f4 [10, 784]
000000 05 57 b7 bc f3 74 f7 bc 0e eb 07 bc d0 9c ca bc
       -0.022380361 -0.030207133 -0.0082957875 -0.024732977
000010 0a 13 0c bd 86 c6 08 bd a0 67 1e 3b 38 39 cc bc
       -0.034197845 -0.03339245 0.0024170652 -0.024929628
000020 7e 4e df 3c 8a 62 ec bc d7 29 00 3d b2 70 ee 3c
       0.027259108 -0.02885558 0.0312899 0.029106472
000030 5b 4c 05 be 75 d4 8d be 51 a5 a5 be 0e 5f b7 bd
       -0.13017409 -0.27701154 -0.3235269 -0.08953677
000040 90 c6 c7 bc e8 c9 8c 3c fa 6d b3 3c 48 ef c5 bb
       -0.024386674 0.01718612 0.021903027 -0.0060404874
000050 b6 70 e0 3c 78 1b 0c bc ae 44 7c bc 50 7c aa bc
       0.027397495 -0.008551471 -0.015397234 -0.02081123
000060 20 08 cf 3c b2 fa 01 bd 4e de ff bc d4 8d a6 bb
       0.025272429 -0.031733222 -0.031233933 -0.005082825
000070 e4 16 a0 bb 6f c3 11 bd 20 19 c4 bc 50 5a d2 bc
       -0.0048855413 -0.03558677 -0.023937762 -0.02567783
000080 16 95 a6 bc ea cd 02 bc 79 26 0c bd 1e d7 ff bd
       -0.020334762 -0.007983664 -0.034216378 -0.12492202
000090 51 f3 7e be e8 c9 be be d3 11 0d bf f7 ad b7 3e
       -0.24897505 -0.37263417 -0.5510532 0.35874912
0000a0 24 25 d1 3e 2f 23 d7 3e e2 16 8c bf 74 53 b7 3e
       0.4084865 0.4201903 -1.0944483 0.35805857
0000b0 e5 73 c9 3e 4e ee cf 3e 4c fb 36 bf e7 a3 12 bf
       0.39346233 0.406115 -0.714772 -0.57281345
0000c0 c5 3d 03 bf 23 4b a8 be 14 3d 82 bd 94 9f ca bd
       -0.5126613 -0.32869825 -0.06359306 -0.09893718
0000d0 64 84 1c 3c d8 cf 67 3c b2 26 5a bc 2f 37 0c bd
       0.009553049 0.014148675 -0.01331489 -0.034232315
0000e0 06 5d 3d bc f3 29 ec bc 69 d8 ab bc 13 49 a9 3e
       -0.011557823 -0.028828597 -0.020977216 0.33063564
0000f0 10 f4 bb 3e ff fa d7 be 1a 10 e8 be 3c 7e 0c be
       0.36709642 -0.42183682 -0.45324785 -0.1372003
000100 e0 68 34 bf be df 96 bf f5 61 03 c0 1d 62 ec be
       -0.70472527 -1.1787031 -2.0528538 -0.46168604
000110 21 cb 16 bf c0 35 66 bf f6 78 ae bf b5 5d f6 bf
       -0.589037 -0.89925766 -1.3630664 -1.9247347
000120 d6 3c 41 bf 81 d8 f7 bf 37 4b f5 bf 57 e0 8c bf
       -0.75483453 -1.9362947 -1.9163579 -1.1005963
000130 cd cd be bf 19 f3 b7 bf 68 e5 8d bf d2 27 4a bf
       -1.4906555 -1.4371063 -1.1085634 -0.7896701
000140 6d 31 24 bf ac b5 9e be 7e 31 b9 bc e8 22 1b 3c
       -0.6413792 -0.3099798 -0.022606608 0.0094687715
000150 82 31 9b 3c 98 6e bc bc 0d 1b 09 bc 05 5e 75 3e
       0.018944506 -0.023001954 -0.008368266 0.23961647
000160 bb 9f a5 be 77 55 c6 be 30 bf 12 bf 57 28 47 bf
       -0.32348427 -0.3873708 -0.5732298 -0.7779593
000170 7b 1f a2 bd e7 3b 95 be 8b 46 33 be 39 33 db bc
       -0.07916161 -0.29147264 -0.17507379 -0.026757823
000180 09 ef 61 be cd 0f 03 3e 1e 44 58 3e d4 a1 4a bd
       -0.22063841 0.12798996 0.21119735 -0.049470738
000190 0f 81 9c 3d 1d ed cc 3c 87 4d b7 be 09 67 c1 be
       0.076418035 0.025015408 -0.35801336 -0.37773922
0001a0 49 82 7b be a9 fd 2c bf 03 ba 15 bf 79 33 98 be
       -0.24561419 -0.67574555 -0.58486956 -0.2972677
0001b0 7a 47 66 be a6 b9 f9 3d d9 8d be be 74 ee 0a 3c
       -0.22488204 0.12193613 -0.37217596 0.008479703
0001c0 4e de 45 bc ad de 4d bd 48 26 b8 be 36 56 98 be
       -0.012076927 -0.05026119 -0.35966706 -0.29753274
0001d0 f7 e7 28 bf 82 c4 75 bf 6c 9b 29 bf b4 24 43 be
       -0.6597895 -0.9600297 -0.6625278 -0.1905697
0001e0 eb 2d 55 bc bb 0d 57 3e b9 c2 e6 bc a0 5b 84 3e
       -0.013011436 0.21001332 -0.028169023 0.25851154
0001f0 84 09 1c be 79 41 98 3d 32 6d ef bd 2c cd d8 3d
       -0.15238005 0.07434363 -0.11690749 0.105860084
000200 88 86 02 be ee 8e 0a 3e 2f b5 8c 3c 63 24 43 bd
       -0.12746632 0.13531086 0.017176239 -0.047642123
000210 c9 ec 56 bd cb fd 3f be 86 89 aa 3c 5e ae 49 bd
       -0.05247191 -0.18749158 0.02081753 -0.049238555
000220 8c 78 ef be fd a2 eb be 64 8a 0f bf 13 76 ea be
       -0.46771657 -0.46022788 -0.5607054 -0.45793208
000230 a1 f1 05 3d f8 8e 1f 3c 79 dc 2e bf a1 99 c0 be
       0.03270114 0.009738676 -0.68305165 -0.3761721
000240 0a a8 2c bf 18 a9 71 bf f3 2b 9f bd 57 24 9c bd
       -0.6744391 -0.9439864 -0.077720545 -0.07624119
000250 40 10 d9 3d 21 c1 bc 3c 8f eb 61 3e d2 9a 55 3d
       0.105988026 0.02304131 0.22062515 0.0521496
000260 12 ea 1c be e0 5e c4 3d e6 0c 5d 3e 50 ae a0 3d
       -0.15323666 0.095884085 0.21586952 0.078457475
000270 63 74 d6 3b cd 65 18 3e f5 f7 4a 3e 30 48 85 3d
       0.006544636 0.14882584 0.1982115 0.06507909
000280 64 46 28 be ed cb 7a bd d1 38 b0 3c b7 df b7 be
       -0.16433102 -0.061229635 0.021511467 -0.35912868
000290 9e 0b fe be 73 ae 8b bf 9e 0c a3 bf 8f 31 fe be
       -0.49618238 -1.0912613 -1.2738225 -0.49647185
0002a0 32 24 90 3c 9d 42 b7 be 28 b2 0d bf 33 2c 8d bf
       0.017595384 -0.3579301 -0.5534997 -1.1029114
0002b0 9d 2a 40 bf 5b 5a 0b be 80 c5 33 bb 3a 5c 18 3d
       -0.7506502 -0.13608687 -0.0027430952 0.03719733
0002c0 3d ff c5 bd 8a 36 ed be 26 2d 2f bd aa 27 69 bd
       -0.096678235 -0.46330673 -0.042767666 -0.056922592
0002d0 8d 79 02 be 1c 68 85 3e bc d8 1a 3e 75 e7 17 bd
       -0.1274168 0.26055992 0.1512174 -0.03708597
0002e0 13 94 8a 3d bf 20 0c 3e c0 f9 48 3e f9 4f 69 3d
       0.06766524 0.13684367 0.19626522 0.056961033
0002f0 52 de 0c 3d e0 2d 8d 3e 10 07 cc 3e 37 d3 22 be
       0.03439171 0.27574062 0.39849138 -0.15900885
000300 29 13 54 bf be 1f f6 bf c9 3a cd bf 5b d5 2a bf
       -0.82841736 -1.9228437 -1.6033565 -0.66731805
000310 d2 b8 ff bc 72 43 53 bf 91 ef f1 be 8d 74 13 bf
       -0.031216059 -0.8252479 -0.47253087 -0.5759972
000320 b0 48 6f bf 3a 26 12 bd 4a 1d 10 3e 4f d8 96 bd
       -0.9347029 -0.035680987 0.14073673 -0.07365476
000330 3d 8d bc be d5 63 a2 3d ce b3 a9 3d 7c 01 86 3d
       -0.36826506 0.07929198 0.08286248 0.06543252
000340 d4 66 d8 3a 73 9b 05 3e b2 78 b8 3c 3f 8b da ba
       0.0016510137 0.1304758 0.02251849 -0.0016673579
000350 e5 a3 41 3d 72 5d 8b 3e c0 59 73 3e fc 0d 23 3e
       0.047275443 0.2721973 0.23764706 0.15923303
000360 bc 9c fe 3b d8 c7 b2 bc 35 5e 4e bd 5e 26 8d 3e
       0.007770149 -0.021823809 -0.05038281 0.27568334
000370 e1 0a af bd 9a 2c a4 bf 89 c4 d2 bf 2e 05 1f bf
       -0.08546997 -1.2826111 -1.6466228 -0.6211728
000380 c0 c6 ea 3e f2 1c 05 bf 33 23 95 3e ac 25 ba 3e
       0.4585476 -0.5199729 0.29128417 0.36356866
000390 d9 91 61 bf bf 97 e7 bd 14 1b 68 bd 0c e1 ee bd
       -0.8811317 -0.1130824 -0.05666645 -0.11664018
0003a0 b0 e3 4a bc 38 82 5e 3e 56 86 de bc a6 c5 24 bd
       -0.0123833865 0.21729362 -0.027163666 -0.040227555
0003b0 4b 39 14 3e da da b2 3c dd 80 5e 3e f2 d7 6a 3e
       0.1447498 0.021832872 0.21728845 0.22933939
0003c0 47 3b dc 3e 04 4a a7 3e ab e6 3f 3e e5 88 7d 3c
       0.43013975 0.32673657 0.18740337 0.015474533
0003d0 51 2e 3d 3e 35 58 e7 3d 4d 0f df 3d 9b 16 ac 3e
       0.184747 0.11296121 0.1089159 0.33610997
0003e0 31 26 10 3e b1 e2 f5 bf 53 15 f8 bf 6c d8 6e bf
       0.14077069 -1.9209806 -1.9381508 -0.93298984
0003f0 15 a4 81 be 55 7b cc be 4d be 06 3f 35 08 1f 3e
       -0.25320497 -0.39937845 0.52634126 0.15530474

logstic.bias f4 [10]
000000 5e c6 27 bf f9 09 55 3f a9 b9 24 3e 89 20 0f bf
       -0.6553706 0.8321834 0.16086449 -0.5590902
000010 7a 9c 53 3e 39 c9 db 3f b8 9a 84 be 78 6b 6d 3f
       0.2066516 1.7170783 -0.2589929 0.9274211
000020 6a 19 ea bf fe a5 e5 be
       -1.8289006 -0.44853204
